data.pth (torch, 5483 bytes, 6 tensors)

l1.weight f4 [8, 56]
00000000: bcf4 babe bd65 7ebe 525e d4be 1475 083f
00000010: f683 d83e a798 03bf a18f 23be 6936 a3be
00000020: a810 edbe 0963 9dbe 250b 103f 83db f43e
00000030: 8691 3f3e 39c7 943e d9ed 7a3d a814 b63e
00000040: 8397 0d3f a6b1 02bf ad7c a13e b4e1 243f
00000050: 1d2c 2e3d 2100 f13e ea5c 153f adc8 3d3f
00000060: 900d 2b3e 4d77 063f 1a0f 083f dec3 13bd
00000070: 9585 6f3e ec7a 903c 0d2c 3fbe 26b4 cc3e
00000080: 92eb 853d b82a b7be af80 0bbe 8a9f 813e
00000090: 51fd eabe 86a3 c63e a19c 0bbf c2ab 91be
000000a0: 1692 1ebd 75a4 2dbe 26ce 363f 1ed1 953e
000000b0: 2acd 233e 0f64 f6bb 950f 1bbe e39c 03bf
000000c0: d191 31be 612c f03e 567d 143f 5fab ae3e
000000d0: d312 e93e 05e7 4abe d07e 923d 7002 89be
000000e0: 7dbc a63c 16a8 053f e743 e7be adf0 943e
000000f0: 0ab6 e23e ab83 d6be 9c9b b5bc afc4 c5be
00000100: 9068 b5be d835 fcbe 60be a53e 9701 19bd
00000110: 8203 2b3f cbc1 26bd 650c cb3e 3370 5ebe
00000120: 0971 073f f434 f6be fe10 f03e 6dfa 293f
00000130: cdad f7bd 4aa3 063f a8c0 ec3e b23e 813e
00000140: 00c8 7bbe cf21 da3e d942 293f 1dc2 243f
00000150: 4ffc 083f bdee 153f afcd c9be beee 473d
00000160: dfae c5be 60ec 9abe da5e 2d3f 73e1 d5bd
00000170: 77ff a43d b0e1 083f e6a7 d6be 5ef2 b63d
00000180: 0474 18be e320 54be e4fd fe3e 0e00 81bd
00000190: 8801 f33e 87e3 34be 9c22 223f c56d 11bf
000001a0: 6bd5 81be 9068 ca3e 8f62 363f f7fe 32be
000001b0: 0731 e33e ce7b 29be 65ed 5f3e c865 f63e
000001c0: 6718 cc3e 0e4d 543e 64a7 e13e 3428 d83d
000001d0: 2b3d b93e 8dba 10bf bf7f d63e 7090 db3e
000001e0: 8247 de3e 77dd a53e 27f9 713e 8230 adbe
000001f0: c57c b63e c476 8abe 489f dd3e 33d2 80be
00000200: d667 023e 0db8 10bf cb79 c1be a33b 6a3e
00000210: 3b00 123f 91b4 793e 1f07 4c3e a09e 22be
00000220: e817 5c3e e979 2a3e d2c1 473e 65ad f93e
00000230: 77b0 873e 67dd df3e 202f bbbe 57c0 a1be
00000240: 898f 213e 027c fd3e 1e02 c93e 6c67 3bbe
00000250: 106a 1cbf 0bb7 813d 3211 b93e 7d0d c73e
00000260: fdb8 e93e 974b eebe ca08 82be 6448 46be
00000270: 3efe 9a3e 2525 bf3e 4070 cf3e 14c2 323f
00000280: 68a0 113f 28dd 643e f17e edbc 5c80 babe
00000290: b8e9 d33d 41b5 d73e 5691 a33e 1a5e 13be
000002a0: 6730 3c3f 38cd 543e aeff e33e 9672 a33d
000002b0: caea 163e c86f 103f 7d01 673e 6de4 9a3e
000002c0: 4a3c 003e a3ab dc3e b796 e93d d7ee 52be
000002d0: 3f5f 2fbe 4b26 e0be bd84 86be cfa5 88be
000002e0: ecbb 0ebe 68af 213f cbb9 893c 0d2c 76be
000002f0: 4b3c 203f bd61 c6be b4d0 bcbe 14f5 71ba
00000300: 88cf f13d 138a 183e ed15 10bf 146b 37bf
00000310: 2f02 42be 5686 04bf 3bc6 0f3f 3d43 abbe
00000320: 6898 073f f871 033f 0a66 4dbe ed7d 2fbe
00000330: 0090 1d3f 2e0b 11bc f976 3f3e d44f e13e
00000340: 2ed5 ac3e 0f13 d63e 5c1a 22bf e89d 86be
00000350: 1bed 7bbe d9b9 433e 0a90 61be 2c4b 7a3f
00000360: c159 1b3f 70c2 b23d 89b1 09bf f466 55be
00000370: 15fe 1abf a65d 9f3e 35c6 d33e 7e43 db3e
00000380: 10ff bb3e 8401 8c3e 579f 003f 0e86 32be
00000390: d4f6 3e3e f70c 4ebe 3d33 b63e b6d2 953e
000003a0: b52a 373f 4a78 b83e 4148 d5bd 6db4 343f
000003b0: 8dc2 4f3f 0529 4c3f c89b 993d 5951 de3e
000003c0: d65e 7abe 0ec6 48be 0296 0c3f c92e aebe
000003d0: 488a b8be 5a98 a3be d5b2 9cbe 7f67 343d
000003e0: cd77 d93e 3cdd 2cbe 1d64 253f c398 6bbe
000003f0: 6755 c63e 4a98 6dbe 408c 91bd fe18 383f
-0.36514843 -0.24843498 -0.4147821 0.5330365 0.42288178 -0.51404804 -0.15972759 -0.3187745
-0.4630177 -0.3073962 0.56267005 0.47823724 0.18707857 0.29058245 0.061261985 0.35562634
0.55309314 -0.5105232 0.31540433 0.64406896 0.04252254 0.4707041 0.583449 0.7413433
0.16704392 0.5252579 0.53148043 -0.036075465 0.23390801 0.017636739 -0.18669148 0.39981192
0.06539072 -0.3577478 -0.13623308 0.2531703 -0.4589639 0.38796633 -0.5453587 -0.28451353
-0.038713537 -0.16957267 0.7140831 0.29261106 0.15996233 -0.007519252 -0.15142663 -0.51411265
-0.17340781 0.46908858 0.5800375 0.3411512 0.45522174 -0.1981469 0.07153094 -0.26759672
0.02035355 0.52209604 -0.45168993 0.2908987 0.4427951 -0.4189733 -0.022168927 -0.3862662
-0.35431337 -0.4925983 0.32371807 -0.03735503 0.6680223 -0.04071216 0.39657894 -0.21722488
0.5290685 -0.48087275 0.46887964 0.66397744 -0.12093697 0.5259291 0.46240735 0.25243145
-0.24588013 0.4260392 0.66117626 0.64358693 0.5350999 0.5856741 -0.39414737 0.048811667
-0.3860998 -0.30258465 0.67722857 -0.10443392 0.080565386 0.5346937 -0.4192497 0.089329466
-0.14888006 -0.2071567 0.49803078 -0.062988386 0.47462106 -0.1766492 0.6333406 -0.5680812
-0.25358137 0.395329 0.7124414 -0.17480074 0.44373342 -0.16551134 0.21867903 0.48124528
0.39862368 0.20732519 0.4407302 0.10554543 0.3617948 -0.56534654 0.41894338 0.42883635
0.4341393 0.32395527 0.236302 -0.3382607 0.35642067 -0.27043736 0.43285584 -0.2516037
0.12734923 -0.5653084 -0.37788233 0.22874312 0.570316 0.24385287 0.19924591 -0.15880823
0.21493495 0.16648068 0.1950753 0.48765102 0.2650182 0.43723604 -0.3655939 -0.31592056
0.1577741 0.49508673 0.39259428 -0.18301171 -0.6109934 0.06333741 0.3614593 0.38877478
0.45648947 -0.46542045 -0.2539733 -0.19363552 0.30272096 0.37333027 0.40515327 0.6982739
0.56885386 0.2234999 -0.028991194 -0.36426055 0.10347313 0.42130473 0.3194682 -0.14391366
0.73511356 0.2078141 0.44531006 0.0798084 0.14738002 0.56420565 0.22559161 0.302524
0.12522998 0.43099698 0.114057 -0.20598923 -0.17126177 -0.43779215 -0.26273146 -0.26689002
-0.13938874 0.63158274 0.016812226 -0.24040242 0.62592 -0.38746443 -0.36877978 -0.000922994
0.118071616 0.14896421 -0.56283456 -0.71647763 -0.18946145 -0.5176748 0.5616185 -0.33449736
0.5296693 0.5134578 -0.20058456 -0.1713788 0.6154785 -0.008852763 0.18697728 0.44006217
0.33756393 0.41811416 -0.6332147 -0.26292348 -0.24602167 0.19113864 -0.22027603 0.97770953
0.6068383 0.08728492 -0.5378652 -0.20840055 -0.6054395 0.31126136 0.41362157 0.4282493
0.36718035 0.27344906 0.50243133 -0.1743395 0.18648845 -0.20122133 0.35585967 0.29262322
0.7154954 0.36029273 -0.10414172 0.7058781 0.81156236 0.7975009 0.07500416 0.43421438
-0.2445024 -0.19606802 0.54916394 -0.3402007 -0.36043 -0.31952173 -0.30605188 0.044044014
0.42474213 -0.16881269 0.64605886 -0.23007493 0.38737032 -0.23202625 -0.07106829 0.71913135

l1.bias f4 [8]
00000000: 3f9a 033f 4789 fa3e 2db6 103f bbc9 6d3f
00000010: bbc7 b23e cf8b ce3e 732b dd3e 2400 803f
0.51407236 0.4893286 0.5652798 0.9288594 0.34918007 0.4034104 0.43197212 1.0000043

l2.weight f4 [8, 8]
00000000: a7de 2ebf ae55 2f3f 8823 913f f16b db3e
00000010: 89ce 6d3f dff3 c73e a0b8 963f bce9 34bf
00000020: 0840 84bd 2bf9 6bbe 36ff e93e 4833 803f
00000030: 559f b1be 3d80 83be 45d2 03be a331 d43e
00000040: ca0b 303e 30ab 633d 5b2c 97be cf78 953e
00000050: 9e3e 3cbe ffc9 81be c4c9 953d 3d58 3abe
00000060: 4a87 973f fbc8 903f 792e 9abe ed55 24bf
00000070: c4bd 6a3f 3c92 60bf 387f 9fbe 04dd 903f
00000080: 030f c3be bf62 85bd e206 8dbf c7b7 4b3f
00000090: 9f19 5e3f 267d 9c3f 7d94 77bf a0aa 103f
000000a0: 0e89 4c3e 4131 903f a6ca 863f f0cd 16bf
000000b0: 2e96 bbbd aa6f 433f 79ec 463f 430e 02bf
000000c0: 5f63 463e 109f 05bd cbb8 8d3e bdbf 533f
000000d0: df23 82bf a364 04bf 9894 24bd f1a3 873f
000000e0: 990b 3bbf 5f5d 7abf 64ad 363f 5df3 323f
000000f0: e53c 5a3e e56d 00be ac3e 463f 5060 553e
-0.6830849 0.6849011 1.1338968 0.4285579 0.9289327 0.39053246 1.1775093 -0.7066915
-0.064575255 -0.23044269 0.45702523 1.001565 -0.34691873 -0.25683776 -0.1287318 0.4144412
0.17191997 0.05558318 -0.29526028 0.29193732 -0.18383262 -0.25349423 0.07313874 -0.18197723
1.1838162 1.1311334 -0.3011358 -0.6419361 0.9169581 -0.87723136 -0.31151748 1.1317449
-0.3809739 -0.06512975 -1.1017725 0.79577297 0.86757845 1.2225692 -0.9671095 0.56510353
0.19974157 1.1265031 1.0530593 -0.58907986 -0.09159504 0.7634226 0.7770458 -0.5080301
0.19373845 -0.032622397 0.27680048 0.82714444 -1.0167197 -0.5171606 -0.040180773 1.0596906
-0.7306457 -0.97798723 0.71358323 0.6990259 0.21312292 -0.12541921 0.7743938 0.20837522

l2.bias f4 [8]
00000000: 2860 c93d 3526 5a3f fd6f aabe b8cc 023f
00000010: e71a 453e 7e13 f23e f94d 203f 5791 343e
0.098327935 0.8521455 -0.33288565 0.51093626 0.19248544 0.47280496 0.62618977 0.17633568

l3.weight f4 [8, 8]
00000000: da1e 8abf 4874 30bf a0fc 743c 6f96 393f
00000010: 39a0 f03e 5e30 72bf f629 7fbf 7baf 81bf
00000020: 7d97 fe3e 3490 7fbf 40e5 f03b 85aa 4bbf
00000030: 8686 4abf a128 5b3f c495 03bf a2d0 8bbf
00000040: 8136 afbf 056b f83e f0f7 463d 21d0 22bf
00000050: a7a2 153f be76 b3bf bf74 3e3f 7e12 8cbe
00000060: c914 71bf b396 213f 9047 81bd 3373 293f
00000070: cf20 c9bf 4a6d 60be 4952 3e3f d0f6 a7bf
00000080: 264d f9bd 086b 8fbf b875 29be 6fb0 313f
00000090: 819a 90bf 97a3 9e3e 1a6f 91bf 2300 02bf
000000a0: 01b3 813e d2fd f6bd b41e bfbd 0d8c 85be
000000b0: e6f0 2b3f 12a3 57bd 61e0 a6bf e041 89bf
000000c0: 2ed2 383f 12e6 1b3e 62a5 d9bd 2307 91bf
000000d0: 5730 46bf 4c7b 00be 90c6 a5bf fa69 183f
000000e0: 49d7 0f3e 5c92 e83e 6b2f 51be 0159 a0bf
000000f0: 16a2 ccbf 953c 2ebf 58cd 3a3f 662b f73e
-1.0790665 -0.6892743 0.014952809 0.7249517 0.4699724 -0.9460505 -0.996734 -1.0131677
0.4972495 -0.9982941 0.0073515475 -0.7955707 -0.79111516 0.8560887 -0.514004 -1.0923045
-1.3688508 0.4851915 0.048576295 -0.6359883 0.5845131 -1.4020612 0.7439689 -0.27357858
-0.9417234 0.63120574 -0.063124776 0.66191405 -1.5713137 -0.2191669 0.7434431 -1.3122196
-0.12172918 -1.1204538 -0.16548812 0.6940984 -1.1297151 0.30984184 -1.136203 -0.5078146
0.25331882 -0.12060131 -0.09332028 -0.26083413 0.67164457 -0.05264575 -1.3037225 -1.0723228
0.7219571 0.15224484 -0.106272474 -1.1330303 -0.7741751 -0.12547034 -1.2951221 0.5953671
0.14046969 0.45424163 -0.20428245 -1.2527162 -1.5986965 -0.6806119 0.7296958 0.48275298

l3.bias f4 [8]
00000000: 6a12 533d d64b 31be b40a 153e f873 b9ba
00000010: 18fb 2f3d f200 293d 7cf9 4bbe 6205 ea3d
0.051531233 -0.17314085 0.14554864 -0.0014148941 0.04296407 0.041260667 -0.1991939 0.11426808
